…
layers {
  top: "data"
  name: "data"
  type: DATA
  data_param {
    source: "/home/cad/disk/linux/RenderForCNN-master/data/syn_lmdb_engine_train_image"
    batch_size: 256
    backend: LMDB
  }
  include {
    phase: TRAIN
  }
  transform_param {
    mirror: false
    mean_file: "/home/cad/disk/linux/RenderForCNN-master/train/imagenet_mean.binaryproto"
  }
}
layers {
  top: "label"
  name: "label"
  type: DATA
  data_param {
    source: "/home/cad/disk/linux/RenderForCNN-master/data/syn_lmdb_engine_train_label"
    batch_size: 256
    backend: LMDB
  }
  include {
    phase: TRAIN
  }
}
layers {
  bottom: "label"
  top: "label_class"
  top: "label_azimuth"
  top: "label_elevation"
  name: "labe-slice"
  type: SLICE
  slice_param {
    slice_dim: 1
    slice_point: 1
    slice_point: 2
  }
}
layers {
  bottom: "data"
  top: "conv1"
  name: "conv1"
  type: CONVOLUTION
  blobs_lr: 0
  blobs_lr: 0
  convolution_param {
    num_output: 96
    kernel_size: 11
    stride: 4
  }
}
layers {
  bottom: "conv1"
  top: "conv1"
  name: "relu1"
  type: RELU
}
layers {
  bottom: "conv1"
  top: "pool1"
  name: "pool1"
  type: POOLING
  pooling_param {
    pool: MAX
    kernel_size: 3
    stride: 2
  }
}
layers {
  bottom: "pool1"
  top: "norm1"
  name: "norm1"
  type: LRN
  lrn_param {
    local_size: 5
    alpha: 0.0001
    beta: 0.75
  }
}
layers {
  bottom: "norm1"
  top: "conv2"
  name: "conv2"
  type: CONVOLUTION
  blobs_lr: 0
  blobs_lr: 0
  convolution_param {
    num_output: 256
    pad: 2
    kernel_size: 5
    group: 2
  }
}
layers {
  bottom: "conv2"
  top: "conv2"
  name: "relu2"
  type: RELU
}
layers {
  bottom: "conv2"
  top: "pool2"
  name: "pool2"
  type: POOLING
  pooling_param {
    pool: MAX
    kernel_size: 3
    stride: 2
  }
}
layers {
  bottom: "pool2"
  top: "norm2"
  name: "norm2"
  type: LRN
  lrn_param {
    local_size: 5
    alpha: 0.0001
    beta: 0.75
  }
}
layers {
  bottom: "norm2"
  top: "conv3"
  name: "conv3"
  type: CONVOLUTION
  blobs_lr: 0
  blobs_lr: 0
  convolution_param {
    num_output: 384
    pad: 1
    kernel_size: 3
  }
}
layers {
  bottom: "conv3"
  top: "conv3"
  name: "relu3"
  type: RELU
}
layers {
  bottom: "conv3"
  top: "conv4-new"
  name: "conv4-new"
  type: CONVOLUTION
  blobs_lr: 1
  blobs_lr: 1
  weight_decay: 1
  weight_decay: 0
  convolution_param {
    num_output: 384
    pad: 1
    kernel_size: 3
    group: 2
    weight_filler {
      type: "gaussian"
      std: 0.01
    }
  }
}
layers {
  bottom: "conv4-new"
  top: "conv4-new"
  name: "relu4"
  type: RELU
}
layers {
  bottom: "conv4-new"
  top: "conv5-new"
  name: "conv5-new"
  type: CONVOLUTION
  blobs_lr: 1
  blobs_lr: 1
  weight_decay: 1
  weight_decay: 0
  convolution_param {
    num_output: 256
    pad: 1
    kernel_size: 3
    group: 2
    weight_filler {
      type: "gaussian"
      std: 0.01
    }
  }
}
layers {
  bottom: "conv5-new"
  top: "conv5-new"
  name: "relu5"
  type: RELU
}
layers {
  bottom: "conv5-new"
  top: "pool5"
  name: "pool5"
  type: POOLING
  pooling_param {
    pool: MAX
    kernel_size: 3
    stride: 2
  }
}
layers {
  bottom: "pool5"
  top: "fc6-new"
  name: "fc6-new"
  type: INNER_PRODUCT
  blobs_lr: 1
  blobs_lr: 1
  weight_decay: 1
  weight_decay: 0
  inner_product_param {
    num_output: 4096
    weight_filler {
      type: "gaussian"
      std: 0.01
    }
  }
}
layers {
  bottom: "fc6-new"
  top: "fc6-new"
  name: "relu6"
  type: RELU
}
layers {
  bottom: "fc6-new"
  top: "fc6-new"
  name: "drop6"
  type: DROPOUT
  dropout_param {
    dropout_ratio: 0.5
  }
}
layers {
  bottom: "fc6-new"
  top: "fc7-new"
  name: "fc7-new"
  type: INNER_PRODUCT
  blobs_lr: 1
  blobs_lr: 1
  weight_decay: 1
  weight_decay: 0
  inner_product_param {
    num_output: 4096
    weight_filler {
      type: "gaussian"
      std: 0.01
    }
    bias_filler {
      type: "constant"
      value: 0
    }
  }
}
layers {
  bottom: "fc7-new"
  top: "fc7-new"
  name: "relu7"
  type: RELU
}
layers {
  bottom: "fc7-new"
  top: "fc7-new"
  name: "drop7"
  type: DROPOUT
  dropout_param {
    dropout_ratio: 0.5
  }
}
layers {
  bottom: "fc7-new"
  top: "fc-azimuth-new"
  name: "fc-azimuth-new"
  type: INNER_PRODUCT
  blobs_lr: 1
  blobs_lr: 1
  weight_decay: 1
  weight_decay: 0
  inner_product_param {
    num_output: 180
    weight_filler {
      type: "gaussian"
      std: 0.01
    }
    bias_filler {
      type: "constant"
      value: 0
    }
  }
}
layers {
  bottom: "fc-azimuth-new"
  bottom: "label_azimuth"
  top: "loss_azimuth-new"
  name: "loss_azimuth-new"
  type: SOFTMAX_WITH_VIEW_LOSS
  loss_weight: 1
  softmax_with_view_loss_param {
    bandwidth: 5
    sigma: 5
    pos_weight: 1
    neg_weight: 0
    period: 180
  }
}
layers {
  bottom: "fc-azimuth-new"
  bottom: "label_azimuth"
  top: "accuracy_azimuth"
  name: "accuracy_azimuth"
  type: ACCURACY_VIEW
  accuracy_view_param {
    tol_angle: 3
    period: 180
  }
}
layers {
  bottom: "fc7-new"
  top: "fc-elevation-new"
  name: "fc-elevation-new"
  type: INNER_PRODUCT
  blobs_lr: 1
  blobs_lr: 1
  weight_decay: 1
  weight_decay: 0
  inner_product_param {
    num_output: 360
    weight_filler {
      type: "gaussian"
      std: 0.01
    }
    bias_filler {
      type: "constant"
      value: 0
    }
  }
}
layers {
  bottom: "fc-elevation-new"
  bottom: "label_elevation"
  top: "loss_elevation-new"
  name: "loss_elevation-new"
  type: SOFTMAX_WITH_VIEW_LOSS
  loss_weight: 1
  softmax_with_view_loss_param {
    bandwidth: 5
    sigma: 5
    pos_weight: 1
    neg_weight: 0
    period: 360
  }
}
layers {
  bottom: "fc-elevation-new"
  bottom: "label_elevation"
  top: "accuracy_elevation"
  name: "accuracy_elevation"
  type: ACCURACY_VIEW
  accuracy_view_param {
    tol_angle: 3
    period: 360
  }
}
layers {
  bottom: "label_class"
  bottom: "label_class"
  top: "accuracy_class"
  name: "accuracy_class"
  type: ACCURACY
}
state {
  phase: TRAIN
}
I0802 11:45:35.156155  5938 layer_factory.hpp:78] Creating layer data
I0802 11:45:35.156183  5938 data_transformer.cpp:24] Loading mean file from/home/cad/disk/linux/RenderForCNN-master/train/imagenet_mean.binaryproto
I0802 11:45:35.157027  5938 net.cpp:67] Creating Layer data
I0802 11:45:35.157044  5938 net.cpp:356] data -> data
I0802 11:45:35.157063  5938 net.cpp:96] Setting up data
I0802 11:45:35.157068  5938 data_layer.cpp:32] Opening dataset /home/cad/disk/linux/RenderForCNN-master/data/syn_lmdb_engine_train_image
I0802 11:45:35.157229  5938 data_layer.cpp:71] output data size: 256,3,256,256
I0802 11:45:35.157299  5938 net.cpp:103] Top shape: 256 3 256 256 (50331648)
I0802 11:45:35.157307  5938 layer_factory.hpp:78] Creating layer label
I0802 11:45:35.157323  5938 net.cpp:67] Creating Layer label
I0802 11:45:35.157328  5938 net.cpp:356] label -> label
I0802 11:45:35.157346  5938 net.cpp:96] Setting up label
I0802 11:45:35.157351  5938 data_layer.cpp:32] Opening dataset /home/cad/disk/linux/RenderForCNN-master/data/syn_lmdb_engine_train_label
I0802 11:45:35.157397  5938 data_layer.cpp:71] output data size: 256,3,1,1
I0802 11:45:35.157445  5938 net.cpp:103] Top shape: 256 3 1 1 (768)
I0802 11:45:35.157454  5938 layer_factory.hpp:78] Creating layer labe-slice
I0802 11:45:35.157474  5938 net.cpp:67] Creating Layer labe-slice
I0802 11:45:35.157492  5938 net.cpp:394] labe-slice <- label
I0802 11:45:35.157510  5938 net.cpp:356] labe-slice -> label_class
I0802 11:45:35.157526  5938 net.cpp:356] labe-slice -> label_azimuth
I0802 11:45:35.157531  5938 net.cpp:356] labe-slice -> label_elevation
I0802 11:45:35.157537  5938 net.cpp:96] Setting up labe-slice
I0802 11:45:35.157544  5938 net.cpp:103] Top shape: 256 1 1 1 (256)
I0802 11:45:35.157548  5938 net.cpp:103] Top shape: 256 1 1 1 (256)
I0802 11:45:35.157552  5938 net.cpp:103] Top shape: 256 1 1 1 (256)
I0802 11:45:35.157555  5938 layer_factory.hpp:78] Creating layer label_class_labe-slice_0_split
I0802 11:45:35.157572  5938 net.cpp:67] Creating Layer label_class_labe-slice_0_split
I0802 11:45:35.157575  5938 net.cpp:394] label_class_labe-slice_0_split <- label_class
I0802 11:45:35.157582  5938 net.cpp:356] label_class_labe-slice_0_split -> label_class_labe-slice_0_split_0
I0802 11:45:35.157588  5938 net.cpp:356] label_class_labe-slice_0_split -> label_class_labe-slice_0_split_1
I0802 11:45:35.157601  5938 net.cpp:96] Setting up label_class_labe-slice_0_split
I0802 11:45:35.157606  5938 net.cpp:103] Top shape: 256 1 1 1 (256)
I0802 11:45:35.157609  5938 net.cpp:103] Top shape: 256 1 1 1 (256)
I0802 11:45:35.157613  5938 layer_factory.hpp:78] Creating layer label_azimuth_labe-slice_1_split
I0802 11:45:35.157618  5938 net.cpp:67] Creating Layer label_azimuth_labe-slice_1_split
I0802 11:45:35.157624  5938 net.cpp:394] label_azimuth_labe-slice_1_split <- label_azimuth
I0802 11:45:35.157629  5938 net.cpp:356] label_azimuth_labe-slice_1_split -> label_azimuth_labe-slice_1_split_0
I0802 11:45:35.157634  5938 net.cpp:356] label_azimuth_labe-slice_1_split -> label_azimuth_labe-slice_1_split_1
I0802 11:45:35.157640  5938 net.cpp:96] Setting up label_azimuth_labe-slice_1_split
I0802 11:45:35.157644  5938 net.cpp:103] Top shape: 256 1 1 1 (256)
I0802 11:45:35.157649  5938 net.cpp:103] Top shape: 256 1 1 1 (256)
I0802 11:45:35.157652  5938 layer_factory.hpp:78] Creating layer label_elevation_labe-slice_2_split
I0802 11:45:35.157657  5938 net.cpp:67] Creating Layer label_elevation_labe-slice_2_split
I0802 11:45:35.157661  5938 net.cpp:394] label_elevation_labe-slice_2_split <- label_elevation
I0802 11:45:35.157666  5938 net.cpp:356] label_elevation_labe-slice_2_split -> label_elevation_labe-slice_2_split_0
I0802 11:45:35.157672  5938 net.cpp:356] label_elevation_labe-slice_2_split -> label_elevation_labe-slice_2_split_1
I0802 11:45:35.157678  5938 net.cpp:96] Setting up label_elevation_labe-slice_2_split
I0802 11:45:35.157682  5938 net.cpp:103] Top shape: 256 1 1 1 (256)
I0802 11:45:35.157686  5938 net.cpp:103] Top shape: 256 1 1 1 (256)
I0802 11:45:35.157690  5938 layer_factory.hpp:78] Creating layer conv1
I0802 11:45:35.157696  5938 net.cpp:67] Creating Layer conv1
I0802 11:45:35.157699  5938 net.cpp:394] conv1 <- data
I0802 11:45:35.157704  5938 net.cpp:356] conv1 -> conv1
I0802 11:45:35.157709  5938 net.cpp:96] Setting up conv1
I0802 11:45:35.157753  5938 net.cpp:103] Top shape: 256 96 62 62 (94470144)
I0802 11:45:35.157773  5938 layer_factory.hpp:78] Creating layer relu1
I0802 11:45:35.157779  5938 net.cpp:67] Creating Layer relu1
I0802 11:45:35.157783  5938 net.cpp:394] relu1 <- conv1
I0802 11:45:35.157788  5938 net.cpp:345] relu1 -> conv1 (in-place)
I0802 11:45:35.157793  5938 net.cpp:96] Setting up relu1
I0802 11:45:35.157799  5938 net.cpp:103] Top shape: 256 96 62 62 (94470144)
I0802 11:45:35.157802  5938 layer_factory.hpp:78] Creating layer pool1
I0802 11:45:35.157809  5938 net.cpp:67] Creating Layer pool1
I0802 11:45:35.157812  5938 net.cpp:394] pool1 <- conv1
I0802 11:45:35.157817  5938 net.cpp:356] pool1 -> pool1
I0802 11:45:35.157822  5938 net.cpp:96] Setting up pool1
I0802 11:45:35.157840  5938 net.cpp:103] Top shape: 256 96 31 31 (23617536)
I0802 11:45:35.157845  5938 layer_factory.hpp:78] Creating layer norm1
I0802 11:45:35.157850  5938 net.cpp:67] Creating Layer norm1
I0802 11:45:35.157855  5938 net.cpp:394] norm1 <- pool1
I0802 11:45:35.157871  5938 net.cpp:356] norm1 -> norm1
I0802 11:45:35.157887  5938 net.cpp:96] Setting up norm1
I0802 11:45:35.157892  5938 net.cpp:103] Top shape: 256 96 31 31 (23617536)
I0802 11:45:35.157896  5938 layer_factory.hpp:78] Creating layer conv2
I0802 11:45:35.157902  5938 net.cpp:67] Creating Layer conv2
I0802 11:45:35.157905  5938 net.cpp:394] conv2 <- norm1
I0802 11:45:35.157910  5938 net.cpp:356] conv2 -> conv2
I0802 11:45:35.157915  5938 net.cpp:96] Setting up conv2
I0802 11:45:35.158116  5938 net.cpp:103] Top shape: 256 256 31 31 (62980096)
I0802 11:45:35.158134  5938 layer_factory.hpp:78] Creating layer relu2
I0802 11:45:35.158139  5938 net.cpp:67] Creating Layer relu2
I0802 11:45:35.158143  5938 net.cpp:394] relu2 <- conv2
I0802 11:45:35.158149  5938 net.cpp:345] relu2 -> conv2 (in-place)
I0802 11:45:35.158154  5938 net.cpp:96] Setting up relu2
I0802 11:45:35.158157  5938 net.cpp:103] Top shape: 256 256 31 31 (62980096)
I0802 11:45:35.158161  5938 layer_factory.hpp:78] Creating layer pool2
I0802 11:45:35.158165  5938 net.cpp:67] Creating Layer pool2
I0802 11:45:35.158169  5938 net.cpp:394] pool2 <- conv2
I0802 11:45:35.158174  5938 net.cpp:356] pool2 -> pool2
I0802 11:45:35.158179  5938 net.cpp:96] Setting up pool2
I0802 11:45:35.158185  5938 net.cpp:103] Top shape: 256 256 15 15 (14745600)
I0802 11:45:35.158188  5938 layer_factory.hpp:78] Creating layer norm2
I0802 11:45:35.158193  5938 net.cpp:67] Creating Layer norm2
I0802 11:45:35.158197  5938 net.cpp:394] norm2 <- pool2
I0802 11:45:35.158202  5938 net.cpp:356] norm2 -> norm2
I0802 11:45:35.158208  5938 net.cpp:96] Setting up norm2
I0802 11:45:35.158215  5938 net.cpp:103] Top shape: 256 256 15 15 (14745600)
I0802 11:45:35.158218  5938 layer_factory.hpp:78] Creating layer conv3
I0802 11:45:35.158223  5938 net.cpp:67] Creating Layer conv3
I0802 11:45:35.158227  5938 net.cpp:394] conv3 <- norm2
I0802 11:45:35.158232  5938 net.cpp:356] conv3 -> conv3
I0802 11:45:35.158237  5938 net.cpp:96] Setting up conv3
I0802 11:45:35.158962  5938 net.cpp:103] Top shape: 256 384 15 15 (22118400)
I0802 11:45:35.158993  5938 layer_factory.hpp:78] Creating layer relu3
I0802 11:45:35.158998  5938 net.cpp:67] Creating Layer relu3
I0802 11:45:35.159003  5938 net.cpp:394] relu3 <- conv3
I0802 11:45:35.159008  5938 net.cpp:345] relu3 -> conv3 (in-place)
I0802 11:45:35.159013  5938 net.cpp:96] Setting up relu3
I0802 11:45:35.159018  5938 net.cpp:103] Top shape: 256 384 15 15 (22118400)
I0802 11:45:35.159021  5938 layer_factory.hpp:78] Creating layer conv4-new
I0802 11:45:35.159036  5938 net.cpp:67] Creating Layer conv4-new
I0802 11:45:35.159040  5938 net.cpp:394] conv4-new <- conv3
I0802 11:45:35.159045  5938 net.cpp:356] conv4-new -> conv4-new
I0802 11:45:35.159051  5938 net.cpp:96] Setting up conv4-new
I0802 11:45:35.165225  5938 net.cpp:103] Top shape: 256 384 15 15 (22118400)
I0802 11:45:35.165257  5938 layer_factory.hpp:78] Creating layer relu4
I0802 11:45:35.165263  5938 net.cpp:67] Creating Layer relu4
I0802 11:45:35.165268  5938 net.cpp:394] relu4 <- conv4-new
I0802 11:45:35.165274  5938 net.cpp:345] relu4 -> conv4-new (in-place)
I0802 11:45:35.165280  5938 net.cpp:96] Setting up relu4
I0802 11:45:35.165284  5938 net.cpp:103] Top shape: 256 384 15 15 (22118400)
I0802 11:45:35.165288  5938 layer_factory.hpp:78] Creating layer conv5-new
I0802 11:45:35.165294  5938 net.cpp:67] Creating Layer conv5-new
I0802 11:45:35.165298  5938 net.cpp:394] conv5-new <- conv4-new
I0802 11:45:35.165303  5938 net.cpp:356] conv5-new -> conv5-new
I0802 11:45:35.165309  5938 net.cpp:96] Setting up conv5-new
I0802 11:45:35.169783  5938 net.cpp:103] Top shape: 256 256 15 15 (14745600)
I0802 11:45:35.169807  5938 layer_factory.hpp:78] Creating layer relu5
I0802 11:45:35.169826  5938 net.cpp:67] Creating Layer relu5
I0802 11:45:35.169831  5938 net.cpp:394] relu5 <- conv5-new
I0802 11:45:35.169837  5938 net.cpp:345] relu5 -> conv5-new (in-place)
I0802 11:45:35.169842  5938 net.cpp:96] Setting up relu5
I0802 11:45:35.169847  5938 net.cpp:103] Top shape: 256 256 15 15 (14745600)
I0802 11:45:35.169864  5938 layer_factory.hpp:78] Creating layer pool5
I0802 11:45:35.169885  5938 net.cpp:67] Creating Layer pool5
I0802 11:45:35.169890  5938 net.cpp:394] pool5 <- conv5-new
I0802 11:45:35.169895  5938 net.cpp:356] pool5 -> pool5
I0802 11:45:35.169901  5938 net.cpp:96] Setting up pool5
I0802 11:45:35.169906  5938 net.cpp:103] Top shape: 256 256 7 7 (3211264)
I0802 11:45:35.169910  5938 layer_factory.hpp:78] Creating layer fc6-new
I0802 11:45:35.169916  5938 net.cpp:67] Creating Layer fc6-new
I0802 11:45:35.169920  5938 net.cpp:394] fc6-new <- pool5
I0802 11:45:35.169926  5938 net.cpp:356] fc6-new -> fc6-new
I0802 11:45:35.169932  5938 net.cpp:96] Setting up fc6-new
I0802 11:45:35.577075  5938 net.cpp:103] Top shape: 256 4096 1 1 (1048576)
I0802 11:45:35.577121  5938 layer_factory.hpp:78] Creating layer relu6
I0802 11:45:35.577138  5938 net.cpp:67] Creating Layer relu6
I0802 11:45:35.577143  5938 net.cpp:394] relu6 <- fc6-new
I0802 11:45:35.577150  5938 net.cpp:345] relu6 -> fc6-new (in-place)
I0802 11:45:35.577164  5938 net.cpp:96] Setting up relu6
I0802 11:45:35.577169  5938 net.cpp:103] Top shape: 256 4096 1 1 (1048576)
I0802 11:45:35.577173  5938 layer_factory.hpp:78] Creating layer drop6
I0802 11:45:35.577179  5938 net.cpp:67] Creating Layer drop6
I0802 11:45:35.577183  5938 net.cpp:394] drop6 <- fc6-new
I0802 11:45:35.577188  5938 net.cpp:345] drop6 -> fc6-new (in-place)
I0802 11:45:35.577193  5938 net.cpp:96] Setting up drop6
I0802 11:45:35.577196  5938 net.cpp:103] Top shape: 256 4096 1 1 (1048576)
I0802 11:45:35.577200  5938 layer_factory.hpp:78] Creating layer fc7-new
I0802 11:45:35.577206  5938 net.cpp:67] Creating Layer fc7-new
I0802 11:45:35.577210  5938 net.cpp:394] fc7-new <- fc6-new
I0802 11:45:35.577215  5938 net.cpp:356] fc7-new -> fc7-new
I0802 11:45:35.577221  5938 net.cpp:96] Setting up fc7-new
I0802 11:45:35.733602  5938 net.cpp:103] Top shape: 256 4096 1 1 (1048576)
I0802 11:45:35.733654  5938 layer_factory.hpp:78] Creating layer relu7
I0802 11:45:35.733664  5938 net.cpp:67] Creating Layer relu7
I0802 11:45:35.733669  5938 net.cpp:394] relu7 <- fc7-new
I0802 11:45:35.733677  5938 net.cpp:345] relu7 -> fc7-new (in-place)
I0802 11:45:35.733683  5938 net.cpp:96] Setting up relu7
I0802 11:45:35.733695  5938 net.cpp:103] Top shape: 256 4096 1 1 (1048576)
I0802 11:45:35.733700  5938 layer_factory.hpp:78] Creating layer drop7
I0802 11:45:35.733705  5938 net.cpp:67] Creating Layer drop7
I0802 11:45:35.733708  5938 net.cpp:394] drop7 <- fc7-new
I0802 11:45:35.733713  5938 net.cpp:345] drop7 -> fc7-new (in-place)
I0802 11:45:35.733718  5938 net.cpp:96] Setting up drop7
I0802 11:45:35.733723  5938 net.cpp:103] Top shape: 256 4096 1 1 (1048576)
I0802 11:45:35.733727  5938 layer_factory.hpp:78] Creating layer fc7-new_drop7_0_split
I0802 11:45:35.733733  5938 net.cpp:67] Creating Layer fc7-new_drop7_0_split
I0802 11:45:35.733736  5938 net.cpp:394] fc7-new_drop7_0_split <- fc7-new
I0802 11:45:35.733741  5938 net.cpp:356] fc7-new_drop7_0_split -> fc7-new_drop7_0_split_0
I0802 11:45:35.733748  5938 net.cpp:356] fc7-new_drop7_0_split -> fc7-new_drop7_0_split_1
I0802 11:45:35.733754  5938 net.cpp:96] Setting up fc7-new_drop7_0_split
I0802 11:45:35.733759  5938 net.cpp:103] Top shape: 256 4096 1 1 (1048576)
I0802 11:45:35.733763  5938 net.cpp:103] Top shape: 256 4096 1 1 (1048576)
I0802 11:45:35.733767  5938 layer_factory.hpp:78] Creating layer fc-azimuth-new
I0802 11:45:35.733773  5938 net.cpp:67] Creating Layer fc-azimuth-new
I0802 11:45:35.733777  5938 net.cpp:394] fc-azimuth-new <- fc7-new_drop7_0_split_0
I0802 11:45:35.733783  5938 net.cpp:356] fc-azimuth-new -> fc-azimuth-new
I0802 11:45:35.733789  5938 net.cpp:96] Setting up fc-azimuth-new
I0802 11:45:35.741420  5938 net.cpp:103] Top shape: 256 180 1 1 (46080)
I0802 11:45:35.741431  5938 layer_factory.hpp:78] Creating layer fc-azimuth-new_fc-azimuth-new_0_split
I0802 11:45:35.741437  5938 net.cpp:67] Creating Layer fc-azimuth-new_fc-azimuth-new_0_split
I0802 11:45:35.741442  5938 net.cpp:394] fc-azimuth-new_fc-azimuth-new_0_split <- fc-azimuth-new
I0802 11:45:35.741462  5938 net.cpp:356] fc-azimuth-new_fc-azimuth-new_0_split -> fc-azimuth-new_fc-azimuth-new_0_split_0
I0802 11:45:35.741494  5938 net.cpp:356] fc-azimuth-new_fc-azimuth-new_0_split -> fc-azimuth-new_fc-azimuth-new_0_split_1
I0802 11:45:35.741502  5938 net.cpp:96] Setting up fc-azimuth-new_fc-azimuth-new_0_split
I0802 11:45:35.741506  5938 net.cpp:103] Top shape: 256 180 1 1 (46080)
I0802 11:45:35.741510  5938 net.cpp:103] Top shape: 256 180 1 1 (46080)
I0802 11:45:35.741513  5938 layer_factory.hpp:78] Creating layer loss_azimuth-new
I0802 11:45:35.741529  5938 net.cpp:67] Creating Layer loss_azimuth-new
I0802 11:45:35.741533  5938 net.cpp:394] loss_azimuth-new <- fc-azimuth-new_fc-azimuth-new_0_split_0
I0802 11:45:35.741539  5938 net.cpp:394] loss_azimuth-new <- label_azimuth_labe-slice_1_split_0
I0802 11:45:35.741544  5938 net.cpp:356] loss_azimuth-new -> loss_azimuth-new
I0802 11:45:35.741550  5938 net.cpp:96] Setting up loss_azimuth-new
I0802 11:45:35.741602  5938 net.cpp:103] Top shape: 1 1 1 1 (1)
I0802 11:45:35.741607  5938 net.cpp:109]     with loss weight 1
I0802 11:45:35.741634  5938 layer_factory.hpp:78] Creating layer accuracy_azimuth
I0802 11:45:35.741641  5938 net.cpp:67] Creating Layer accuracy_azimuth
I0802 11:45:35.741644  5938 net.cpp:394] accuracy_azimuth <- fc-azimuth-new_fc-azimuth-new_0_split_1
I0802 11:45:35.741649  5938 net.cpp:394] accuracy_azimuth <- label_azimuth_labe-slice_1_split_1
I0802 11:45:35.741655  5938 net.cpp:356] accuracy_azimuth -> accuracy_azimuth
I0802 11:45:35.741662  5938 net.cpp:96] Setting up accuracy_azimuth
I0802 11:45:35.741665  5938 net.cpp:103] Top shape: 1 1 1 1 (1)
I0802 11:45:35.741669  5938 layer_factory.hpp:78] Creating layer fc-elevation-new
I0802 11:45:35.741686  5938 net.cpp:67] Creating Layer fc-elevation-new
I0802 11:45:35.741690  5938 net.cpp:394] fc-elevation-new <- fc7-new_drop7_0_split_1
I0802 11:45:35.741696  5938 net.cpp:356] fc-elevation-new -> fc-elevation-new
I0802 11:45:35.741701  5938 net.cpp:96] Setting up fc-elevation-new
I0802 11:45:35.755604  5938 net.cpp:103] Top shape: 256 360 1 1 (92160)
I0802 11:45:35.755638  5938 layer_factory.hpp:78] Creating layer fc-elevation-new_fc-elevation-new_0_split
I0802 11:45:35.755645  5938 net.cpp:67] Creating Layer fc-elevation-new_fc-elevation-new_0_split
I0802 11:45:35.755650  5938 net.cpp:394] fc-elevation-new_fc-elevation-new_0_split <- fc-elevation-new
I0802 11:45:35.755656  5938 net.cpp:356] fc-elevation-new_fc-elevation-new_0_split -> fc-elevation-new_fc-elevation-new_0_split_0
I0802 11:45:35.755671  5938 net.cpp:356] fc-elevation-new_fc-elevation-new_0_split -> fc-elevation-new_fc-elevation-new_0_split_1
I0802 11:45:35.755689  5938 net.cpp:96] Setting up fc-elevation-new_fc-elevation-new_0_split
I0802 11:45:35.755693  5938 net.cpp:103] Top shape: 256 360 1 1 (92160)
I0802 11:45:35.755697  5938 net.cpp:103] Top shape: 256 360 1 1 (92160)
I0802 11:45:35.755702  5938 layer_factory.hpp:78] Creating layer loss_elevation-new
I0802 11:45:35.755708  5938 net.cpp:67] Creating Layer loss_elevation-new
I0802 11:45:35.755719  5938 net.cpp:394] loss_elevation-new <- fc-elevation-new_fc-elevation-new_0_split_0
I0802 11:45:35.755724  5938 net.cpp:394] loss_elevation-new <- label_elevation_labe-slice_2_split_0
I0802 11:45:35.755730  5938 net.cpp:356] loss_elevation-new -> loss_elevation-new
I0802 11:45:35.755735  5938 net.cpp:96] Setting up loss_elevation-new
I0802 11:45:35.755863  5938 net.cpp:103] Top shape: 1 1 1 1 (1)
I0802 11:45:35.755872  5938 net.cpp:109]     with loss weight 1
I0802 11:45:35.755879  5938 layer_factory.hpp:78] Creating layer accuracy_elevation
I0802 11:45:35.755884  5938 net.cpp:67] Creating Layer accuracy_elevation
I0802 11:45:35.755889  5938 net.cpp:394] accuracy_elevation <- fc-elevation-new_fc-elevation-new_0_split_1
I0802 11:45:35.755893  5938 net.cpp:394] accuracy_elevation <- label_elevation_labe-slice_2_split_1
I0802 11:45:35.755899  5938 net.cpp:356] accuracy_elevation -> accuracy_elevation
I0802 11:45:35.755905  5938 net.cpp:96] Setting up accuracy_elevation
I0802 11:45:35.755923  5938 net.cpp:103] Top shape: 1 1 1 1 (1)
I0802 11:45:35.755928  5938 layer_factory.hpp:78] Creating layer accuracy_class
I0802 11:45:35.755951  5938 net.cpp:67] Creating Layer accuracy_class
I0802 11:45:35.755955  5938 net.cpp:394] accuracy_class <- label_class_labe-slice_0_split_0
I0802 11:45:35.755960  5938 net.cpp:394] accuracy_class <- label_class_labe-slice_0_split_1
I0802 11:45:35.755965  5938 net.cpp:356] accuracy_class -> accuracy_class
I0802 11:45:35.755970  5938 net.cpp:96] Setting up accuracy_class
I0802 11:45:35.755975  5938 net.cpp:103] Top shape: 1 1 1 1 (1)
I0802 11:45:35.755980  5938 net.cpp:172] accuracy_class does not need backward computation.
I0802 11:45:35.755982  5938 net.cpp:172] accuracy_elevation does not need backward computation.
I0802 11:45:35.755986  5938 net.cpp:170] loss_elevation-new needs backward computation.
I0802 11:45:35.755990  5938 net.cpp:170] fc-elevation-new_fc-elevation-new_0_split needs backward computation.
I0802 11:45:35.755995  5938 net.cpp:170] fc-elevation-new needs backward computation.
…
name: "RenderForCNN"
layers {
  top: "data"
  name: "data"
  type: DATA
  data_param {
    source: "/home/cad/disk/linux/RenderForCNN-master/data/syn_lmdb_engine_test_image"
    batch_size: 64
    backend: LMDB
  }
  include {
    phase: TEST
  }
  transform_param {
    mirror: false
    mean_file: "/home/cad/disk/linux/RenderForCNN-master/train/imagenet_mean.binaryproto"
  }
}
layers {
  top: "label"
  name: "label"
  type: DATA
  data_param {
    source: "/home/cad/disk/linux/RenderForCNN-master/data/syn_lmdb_engine_test_label"
    batch_size: 64
    backend: LMDB
  }
  include {
    phase: TEST
  }
}
layers {
  bottom: "label"
  top: "label_class"
  top: "label_azimuth"
  top: "label_elevation"
  name: "labe-slice"
  type: SLICE
  slice_param {
    slice_dim: 1
    slice_point: 1
    slice_point: 2
  }
}
layers {
  bottom: "data"
  top: "conv1"
  name: "conv1"
  type: CONVOLUTION
  blobs_lr: 0
  blobs_lr: 0
  convolution_param {
    num_output: 96
    kernel_size: 11
    stride: 4
  }
}
layers {
  bottom: "conv1"
  top: "conv1"
  name: "relu1"
  type: RELU
}
layers {
  bottom: "conv1"
  top: "pool1"
  name: "pool1"
  type: POOLING
  pooling_param {
    pool: MAX
    kernel_size: 3
    stride: 2
  }
}
layers {
  bottom: "pool1"
  top: "norm1"
  name: "norm1"
  type: LRN
  lrn_param {
    local_size: 5
    alpha: 0.0001
    beta: 0.75
  }
}
layers {
  bottom: "norm1"
  top: "conv2"
  name: "conv2"
  type: CONVOLUTION
  blobs_lr: 0
  blobs_lr: 0
  convolution_param {
    num_output: 256
    pad: 2
    kernel_size: 5
    group: 2
  }
}
layers {
  bottom: "conv2"
  top: "conv2"
  name: "relu2"
  type: RELU
}
layers {
  bottom: "conv2"
  top: "pool2"
  name: "pool2"
  type: POOLING
  pooling_param {
    pool: MAX
    kernel_size: 3
    stride: 2
  }
}
layers {
  bottom: "pool2"
  top: "norm2"
  name: "norm2"
  type: LRN
  lrn_param {
    local_size: 5
    alpha: 0.0001
    beta: 0.75
  }
}
layers {
  bottom: "norm2"
  top: "conv3"
  name: "conv3"
  type: CONVOLUTION
  blobs_lr: 0
  blobs_lr: 0
  convolution_param {
    num_output: 384
    pad: 1
    kernel_size: 3
  }
}
layers {
  bottom: "conv3"
  top: "conv3"
  name: "relu3"
  type: RELU
}
layers {
  bottom: "conv3"
  top: "conv4-new"
  name: "conv4-new"
  type: CONVOLUTION
  blobs_lr: 1
  blobs_lr: 1
  weight_decay: 1
  weight_decay: 0
  convolution_param {
    num_output: 384
    pad: 1
    kernel_size: 3
    group: 2
    weight_filler {
      type: "gaussian"
      std: 0.01
    }
  }
}
layers {
  bottom: "conv4-new"
  top: "conv4-new"
  name: "relu4"
  type: RELU
}
layers {
  bottom: "conv4-new"
  top: "conv5-new"
  name: "conv5-new"
  type: CONVOLUTION
  blobs_lr: 1
  blobs_lr: 1
  weight_decay: 1
  weight_decay: 0
  convolution_param {
    num_output: 256
    pad: 1
    kernel_size: 3
    group: 2
    weight_filler {
      type: "gaussian"
      std: 0.01
    }
  }
}
layers {
  bottom: "conv5-new"
  top: "conv5-new"
  name: "relu5"
  type: RELU
}
layers {
  bottom: "conv5-new"
  top: "pool5"
  name: "pool5"
  type: POOLING
  pooling_param {
    pool: MAX
    kernel_size: 3
    stride: 2
  }
}
layers {
  bottom: "pool5"
  top: "fc6-new"
  name: "fc6-new"
  type: INNER_PRODUCT
  blobs_lr: 1
  blobs_lr: 1
  weight_decay: 1
  weight_decay: 0
  inner_product_param {
    num_output: 4096
    weight_filler {
      type: "gaussian"
      std: 0.01
    }
  }
}
layers {
  bottom: "fc6-new"
  top: "fc6-new"
  name: "relu6"
  type: RELU
}
layers {
  bottom: "fc6-new"
  top: "fc6-new"
  name: "drop6"
  type: DROPOUT
  dropout_param {
    dropout_ratio: 0.5
  }
}
layers {
  bottom: "fc6-new"
  top: "fc7-new"
  name: "fc7-new"
  type: INNER_PRODUCT
  blobs_lr: 1
  blobs_lr: 1
  weight_decay: 1
  weight_decay: 0
  inner_product_param {
    num_output: 4096
    weight_filler {
      type: "gaussian"
      std: 0.01
    }
    bias_filler {
      type: "constant"
      value: 0
    }
  }
}
layers {
  bottom: "fc7-new"
  top: "fc7-new"
  name: "relu7"
  type: RELU
}
layers {
  bottom: "fc7-new"
  top: "fc7-new"
  name: "drop7"
  type: DROPOUT
  dropout_param {
    dropout_ratio: 0.5
  }
}
layers {
  bottom: "fc7-new"
  top: "fc-azimuth-new"
  name: "fc-azimuth-new"
  type: INNER_PRODUCT
  blobs_lr: 1
  blobs_lr: 1
  weight_decay: 1
  weight_decay: 0
  inner_product_param {
    num_output: 180
    weight_filler {
      type: "gaussian"
      std: 0.01
    }
    bias_filler {
      type: "constant"
      value: 0
    }
  }
}
layers {
  bottom: "fc-azimuth-new"
  bottom: "label_azimuth"
  top: "loss_azimuth-new"
  name: "loss_azimuth-new"
  type: SOFTMAX_WITH_VIEW_LOSS
  loss_weight: 1
  softmax_with_view_loss_param {
    bandwidth: 5
    sigma: 5
    pos_weight: 1
    neg_weight: 0
    period: 180
  }
}
layers {
  bottom: "fc-azimuth-new"
  bottom: "label_azimuth"
  top: "accuracy_azimuth"
  name: "accuracy_azimuth"
  type: ACCURACY_VIEW
  accuracy_view_param {
    tol_angle: 3
    period: 180
  }
}
layers {
  bottom: "fc7-new"
  top: "fc-elevation-new"
  name: "fc-elevation-new"
  type: INNER_PRODUCT
  blobs_lr: 1
  blobs_lr: 1
  weight_decay: 1
  weight_decay: 0
  inner_product_param {
    num_output: 360
    weight_filler {
      type: "gaussian"
      std: 0.01
    }
    bias_filler {
      type: "constant"
      value: 0
    }
  }
}
layers {
  bottom: "fc-elevation-new"
  bottom: "label_elevation"
  top: "loss_elevation-new"
  name: "loss_elevation-new"
  type: SOFTMAX_WITH_VIEW_LOSS
  loss_weight: 1
  softmax_with_view_loss_param {
    bandwidth: 5
    sigma: 5
    pos_weight: 1
    neg_weight: 0
    period: 360
  }
}
layers {
  bottom: "fc-elevation-new"
  bottom: "label_elevation"
  top: "accuracy_elevation"
  name: "accuracy_elevation"
  type: ACCURACY_VIEW
  accuracy_view_param {
    tol_angle: 3
    period: 360
  }
}
layers {
  bottom: "label_class"
  bottom: "label_class"
  top: "accuracy_class"
  name: "accuracy_class"
  type: ACCURACY
}
state {
  phase: TEST
}
I0802 11:45:35.756783  5938 layer_factory.hpp:78] Creating layer data
I0802 11:45:35.756799  5938 data_transformer.cpp:24] Loading mean file from/home/cad/disk/linux/RenderForCNN-master/train/imagenet_mean.binaryproto
I0802 11:45:35.757915  5938 net.cpp:67] Creating Layer data
I0802 11:45:35.757933  5938 net.cpp:356] data -> data
I0802 11:45:35.757948  5938 net.cpp:96] Setting up data
I0802 11:45:35.757952  5938 data_layer.cpp:32] Opening dataset /home/cad/disk/linux/RenderForCNN-master/data/syn_lmdb_engine_test_image
I0802 11:45:35.758074  5938 data_layer.cpp:71] output data size: 64,3,256,256
I0802 11:45:35.758126  5938 net.cpp:103] Top shape: 64 3 256 256 (12582912)
I0802 11:45:35.758133  5938 layer_factory.hpp:78] Creating layer label
I0802 11:45:35.758139  5938 net.cpp:67] Creating Layer label
I0802 11:45:35.758144  5938 net.cpp:356] label -> label
I0802 11:45:35.758150  5938 net.cpp:96] Setting up label
I0802 11:45:35.758154  5938 data_layer.cpp:32] Opening dataset /home/cad/disk/linux/RenderForCNN-master/data/syn_lmdb_engine_test_label
I0802 11:45:35.758185  5938 data_layer.cpp:71] output data size: 64,3,1,1
I0802 11:45:35.758258  5938 net.cpp:103] Top shape: 64 3 1 1 (192)
I0802 11:45:35.758265  5938 layer_factory.hpp:78] Creating layer labe-slice
I0802 11:45:35.758271  5938 net.cpp:67] Creating Layer labe-slice
I0802 11:45:35.758275  5938 net.cpp:394] labe-slice <- label
I0802 11:45:35.758281  5938 net.cpp:356] labe-slice -> label_class
I0802 11:45:35.758298  5938 net.cpp:356] labe-slice -> label_azimuth
I0802 11:45:35.758309  5938 net.cpp:356] labe-slice -> label_elevation
I0802 11:45:35.758316  5938 net.cpp:96] Setting up labe-slice
I0802 11:45:35.758322  5938 net.cpp:103] Top shape: 64 1 1 1 (64)
I0802 11:45:35.758325  5938 net.cpp:103] Top shape: 64 1 1 1 (64)
I0802 11:45:35.758329  5938 net.cpp:103] Top shape: 64 1 1 1 (64)
I0802 11:45:35.758332  5938 layer_factory.hpp:78] Creating layer label_class_labe-slice_0_split
I0802 11:45:35.758337  5938 net.cpp:67] Creating Layer label_class_labe-slice_0_split
I0802 11:45:35.758342  5938 net.cpp:394] label_class_labe-slice_0_split <- label_class
I0802 11:45:35.758347  5938 net.cpp:356] label_class_labe-slice_0_split -> label_class_labe-slice_0_split_0
I0802 11:45:35.758352  5938 net.cpp:356] label_class_labe-slice_0_split -> label_class_labe-slice_0_split_1
I0802 11:45:35.758358  5938 net.cpp:96] Setting up label_class_labe-slice_0_split
I0802 11:45:35.758363  5938 net.cpp:103] Top shape: 64 1 1 1 (64)
I0802 11:45:35.758368  5938 net.cpp:103] Top shape: 64 1 1 1 (64)
I0802 11:45:35.758373  5938 layer_factory.hpp:78] Creating layer label_azimuth_labe-slice_1_split
I0802 11:45:35.758378  5938 net.cpp:67] Creating Layer label_azimuth_labe-slice_1_split
I0802 11:45:35.758381  5938 net.cpp:394] label_azimuth_labe-slice_1_split <- label_azimuth
I0802 11:45:35.758385  5938 net.cpp:356] label_azimuth_labe-slice_1_split -> label_azimuth_labe-slice_1_split_0
I0802 11:45:35.758391  5938 net.cpp:356] label_azimuth_labe-slice_1_split -> label_azimuth_labe-slice_1_split_1
I0802 11:45:35.758397  5938 net.cpp:96] Setting up label_azimuth_labe-slice_1_split
I0802 11:45:35.758401  5938 net.cpp:103] Top shape: 64 1 1 1 (64)
I0802 11:45:35.758405  5938 net.cpp:103] Top shape: 64 1 1 1 (64)
I0802 11:45:35.758409  5938 layer_factory.hpp:78] Creating layer label_elevation_labe-slice_2_split
I0802 11:45:35.758414  5938 net.cpp:67] Creating Layer label_elevation_labe-slice_2_split
I0802 11:45:35.758417  5938 net.cpp:394] label_elevation_labe-slice_2_split <- label_elevation
I0802 11:45:35.758422  5938 net.cpp:356] label_elevation_labe-slice_2_split -> label_elevation_labe-slice_2_split_0
I0802 11:45:35.758427  5938 net.cpp:356] label_elevation_labe-slice_2_split -> label_elevation_labe-slice_2_split_1
I0802 11:45:35.758432  5938 net.cpp:96] Setting up label_elevation_labe-slice_2_split
I0802 11:45:35.758436  5938 net.cpp:103] Top shape: 64 1 1 1 (64)
I0802 11:45:35.758440  5938 net.cpp:103] Top shape: 64 1 1 1 (64)
I0802 11:45:35.758443  5938 layer_factory.hpp:78] Creating layer conv1
I0802 11:45:35.758448  5938 net.cpp:67] Creating Layer conv1
I0802 11:45:35.758452  5938 net.cpp:394] conv1 <- data
I0802 11:45:35.758457  5938 net.cpp:356] conv1 -> conv1
I0802 11:45:35.758461  5938 net.cpp:96] Setting up conv1
I0802 11:45:35.758496  5938 net.cpp:103] Top shape: 64 96 62 62 (23617536)
I0802 11:45:35.758512  5938 layer_factory.hpp:78] Creating layer relu1
I0802 11:45:35.758517  5938 net.cpp:67] Creating Layer relu1
I0802 11:45:35.758520  5938 net.cpp:394] relu1 <- conv1
I0802 11:45:35.758525  5938 net.cpp:345] relu1 -> conv1 (in-place)
I0802 11:45:35.758530  5938 net.cpp:96] Setting up relu1
I0802 11:45:35.758534  5938 net.cpp:103] Top shape: 64 96 62 62 (23617536)
I0802 11:45:35.758538  5938 layer_factory.hpp:78] Creating layer pool1
I0802 11:45:35.758544  5938 net.cpp:67] Creating Layer pool1
I0802 11:45:35.758548  5938 net.cpp:394] pool1 <- conv1
I0802 11:45:35.758553  5938 net.cpp:356] pool1 -> pool1
I0802 11:45:35.758558  5938 net.cpp:96] Setting up pool1
I0802 11:45:35.758589  5938 net.cpp:103] Top shape: 64 96 31 31 (5904384)
I0802 11:45:35.758594  5938 layer_factory.hpp:78] Creating layer norm1
I0802 11:45:35.758599  5938 net.cpp:67] Creating Layer norm1
I0802 11:45:35.758604  5938 net.cpp:394] norm1 <- pool1
I0802 11:45:35.758638  5938 net.cpp:356] norm1 -> norm1
I0802 11:45:35.758643  5938 net.cpp:96] Setting up norm1
I0802 11:45:35.758648  5938 net.cpp:103] Top shape: 64 96 31 31 (5904384)
I0802 11:45:35.758656  5938 layer_factory.hpp:78] Creating layer conv2
I0802 11:45:35.758666  5938 net.cpp:67] Creating Layer conv2
I0802 11:45:35.758669  5938 net.cpp:394] conv2 <- norm1
I0802 11:45:35.758674  5938 net.cpp:356] conv2 -> conv2
I0802 11:45:35.758680  5938 net.cpp:96] Setting up conv2
I0802 11:45:35.758954  5938 net.cpp:103] Top shape: 64 256 31 31 (15745024)
I0802 11:45:35.758971  5938 layer_factory.hpp:78] Creating layer relu2
I0802 11:45:35.758988  5938 net.cpp:67] Creating Layer relu2
I0802 11:45:35.758992  5938 net.cpp:394] relu2 <- conv2
I0802 11:45:35.758997  5938 net.cpp:345] relu2 -> conv2 (in-place)
I0802 11:45:35.759002  5938 net.cpp:96] Setting up relu2
I0802 11:45:35.759006  5938 net.cpp:103] Top shape: 64 256 31 31 (15745024)
I0802 11:45:35.759009  5938 layer_factory.hpp:78] Creating layer pool2
I0802 11:45:35.759013  5938 net.cpp:67] Creating Layer pool2
I0802 11:45:35.759017  5938 net.cpp:394] pool2 <- conv2
I0802 11:45:35.759022  5938 net.cpp:356] pool2 -> pool2
I0802 11:45:35.759027  5938 net.cpp:96] Setting up pool2
I0802 11:45:35.759032  5938 net.cpp:103] Top shape: 64 256 15 15 (3686400)
I0802 11:45:35.759035  5938 layer_factory.hpp:78] Creating layer norm2
I0802 11:45:35.759040  5938 net.cpp:67] Creating Layer norm2
I0802 11:45:35.759044  5938 net.cpp:394] norm2 <- pool2
I0802 11:45:35.759050  5938 net.cpp:356] norm2 -> norm2
I0802 11:45:35.759057  5938 net.cpp:96] Setting up norm2
I0802 11:45:35.759061  5938 net.cpp:103] Top shape: 64 256 15 15 (3686400)
I0802 11:45:35.759065  5938 layer_factory.hpp:78] Creating layer conv3
I0802 11:45:35.759070  5938 net.cpp:67] Creating Layer conv3
I0802 11:45:35.759075  5938 net.cpp:394] conv3 <- norm2
I0802 11:45:35.759083  5938 net.cpp:356] conv3 -> conv3
I0802 11:45:35.759090  5938 net.cpp:96] Setting up conv3
I0802 11:45:35.761504  5938 net.cpp:103] Top shape: 64 384 15 15 (5529600)
I0802 11:45:35.761525  5938 layer_factory.hpp:78] Creating layer relu3
I0802 11:45:35.761530  5938 net.cpp:67] Creating Layer relu3
I0802 11:45:35.761534  5938 net.cpp:394] relu3 <- conv3
I0802 11:45:35.761539  5938 net.cpp:345] relu3 -> conv3 (in-place)
I0802 11:45:35.761544  5938 net.cpp:96] Setting up relu3
I0802 11:45:35.761548  5938 net.cpp:103] Top shape: 64 384 15 15 (5529600)
I0802 11:45:35.761551  5938 layer_factory.hpp:78] Creating layer conv4-new
I0802 11:45:35.761559  5938 net.cpp:67] Creating Layer conv4-new
I0802 11:45:35.761562  5938 net.cpp:394] conv4-new <- conv3
I0802 11:45:35.761569  5938 net.cpp:356] conv4-new -> conv4-new
I0802 11:45:35.761574  5938 net.cpp:96] Setting up conv4-new
I0802 11:45:35.768918  5938 net.cpp:103] Top shape: 64 384 15 15 (5529600)
I0802 11:45:35.768945  5938 layer_factory.hpp:78] Creating layer relu4
I0802 11:45:35.768954  5938 net.cpp:67] Creating Layer relu4
I0802 11:45:35.768957  5938 net.cpp:394] relu4 <- conv4-new
I0802 11:45:35.768972  5938 net.cpp:345] relu4 -> conv4-new (in-place)
I0802 11:45:35.768978  5938 net.cpp:96] Setting up relu4
I0802 11:45:35.768982  5938 net.cpp:103] Top shape: 64 384 15 15 (5529600)
I0802 11:45:35.768986  5938 layer_factory.hpp:78] Creating layer conv5-new
I0802 11:45:35.768992  5938 net.cpp:67] Creating Layer conv5-new
I0802 11:45:35.768996  5938 net.cpp:394] conv5-new <- conv4-new
I0802 11:45:35.769002  5938 net.cpp:356] conv5-new -> conv5-new
I0802 11:45:35.769008  5938 net.cpp:96] Setting up conv5-new
I0802 11:45:35.772923  5938 net.cpp:103] Top shape: 64 256 15 15 (3686400)
I0802 11:45:35.772972  5938 layer_factory.hpp:78] Creating layer relu5
I0802 11:45:35.772989  5938 net.cpp:67] Creating Layer relu5
I0802 11:45:35.772995  5938 net.cpp:394] relu5 <- conv5-new
I0802 11:45:35.773010  5938 net.cpp:345] relu5 -> conv5-new (in-place)
I0802 11:45:35.773016  5938 net.cpp:96] Setting up relu5
I0802 11:45:35.773027  5938 net.cpp:103] Top shape: 64 256 15 15 (3686400)
I0802 11:45:35.773031  5938 layer_factory.hpp:78] Creating layer pool5
I0802 11:45:35.773037  5938 net.cpp:67] Creating Layer pool5
I0802 11:45:35.773041  5938 net.cpp:394] pool5 <- conv5-new
I0802 11:45:35.773063  5938 net.cpp:356] pool5 -> pool5
I0802 11:45:35.773078  5938 net.cpp:96] Setting up pool5
I0802 11:45:35.773102  5938 net.cpp:103] Top shape: 64 256 7 7 (802816)
I0802 11:45:35.773106  5938 layer_factory.hpp:78] Creating layer fc6-new
I0802 11:45:35.773113  5938 net.cpp:67] Creating Layer fc6-new
I0802 11:45:35.773116  5938 net.cpp:394] fc6-new <- pool5
I0802 11:45:35.773134  5938 net.cpp:356] fc6-new -> fc6-new
I0802 11:45:35.773140  5938 net.cpp:96] Setting up fc6-new
I0802 11:45:36.335717  5938 net.cpp:103] Top shape: 64 4096 1 1 (262144)
I0802 11:45:36.335767  5938 layer_factory.hpp:78] Creating layer relu6
I0802 11:45:36.335777  5938 net.cpp:67] Creating Layer relu6
I0802 11:45:36.335782  5938 net.cpp:394] relu6 <- fc6-new
I0802 11:45:36.335798  5938 net.cpp:345] relu6 -> fc6-new (in-place)
I0802 11:45:36.335813  5938 net.cpp:96] Setting up relu6
I0802 11:45:36.335819  5938 net.cpp:103] Top shape: 64 4096 1 1 (262144)
I0802 11:45:36.335822  5938 layer_factory.hpp:78] Creating layer drop6
I0802 11:45:36.335829  5938 net.cpp:67] Creating Layer drop6
I0802 11:45:36.335832  5938 net.cpp:394] drop6 <- fc6-new
I0802 11:45:36.335839  5938 net.cpp:345] drop6 -> fc6-new (in-place)
I0802 11:45:36.335844  5938 net.cpp:96] Setting up drop6
I0802 11:45:36.335849  5938 net.cpp:103] Top shape: 64 4096 1 1 (262144)
I0802 11:45:36.335851  5938 layer_factory.hpp:78] Creating layer fc7-new
I0802 11:45:36.335857  5938 net.cpp:67] Creating Layer fc7-new
I0802 11:45:36.335861  5938 net.cpp:394] fc7-new <- fc6-new
I0802 11:45:36.335866  5938 net.cpp:356] fc7-new -> fc7-new
I0802 11:45:36.335881  5938 net.cpp:96] Setting up fc7-new
I0802 11:45:36.517061  5938 net.cpp:103] Top shape: 64 4096 1 1 (262144)
I0802 11:45:36.517107  5938 layer_factory.hpp:78] Creating layer relu7
I0802 11:45:36.517115  5938 net.cpp:67] Creating Layer relu7
I0802 11:45:36.517120  5938 net.cpp:394] relu7 <- fc7-new
I0802 11:45:36.517128  5938 net.cpp:345] relu7 -> fc7-new (in-place)
I0802 11:45:36.517143  5938 net.cpp:96] Setting up relu7
I0802 11:45:36.517148  5938 net.cpp:103] Top shape: 64 4096 1 1 (262144)
I0802 11:45:36.517151  5938 layer_factory.hpp:78] Creating layer drop7
I0802 11:45:36.517156  5938 net.cpp:67] Creating Layer drop7
I0802 11:45:36.517160  5938 net.cpp:394] drop7 <- fc7-new
I0802 11:45:36.517165  5938 net.cpp:345] drop7 -> fc7-new (in-place)
I0802 11:45:36.517169  5938 net.cpp:96] Setting up drop7
I0802 11:45:36.517174  5938 net.cpp:103] Top shape: 64 4096 1 1 (262144)
I0802 11:45:36.517177  5938 layer_factory.hpp:78] Creating layer fc7-new_drop7_0_split
I0802 11:45:36.517182  5938 net.cpp:67] Creating Layer fc7-new_drop7_0_split
I0802 11:45:36.517186  5938 net.cpp:394] fc7-new_drop7_0_split <- fc7-new
I0802 11:45:36.517191  5938 net.cpp:356] fc7-new_drop7_0_split -> fc7-new_drop7_0_split_0
I0802 11:45:36.517199  5938 net.cpp:356] fc7-new_drop7_0_split -> fc7-new_drop7_0_split_1
I0802 11:45:36.517211  5938 net.cpp:96] Setting up fc7-new_drop7_0_split
I0802 11:45:36.517216  5938 net.cpp:103] Top shape: 64 4096 1 1 (262144)
I0802 11:45:36.517220  5938 net.cpp:103] Top shape: 64 4096 1 1 (262144)
I0802 11:45:36.517223  5938 layer_factory.hpp:78] Creating layer fc-azimuth-new
I0802 11:45:36.517230  5938 net.cpp:67] Creating Layer fc-azimuth-new
I0802 11:45:36.517241  5938 net.cpp:394] fc-azimuth-new <- fc7-new_drop7_0_split_0
I0802 11:45:36.517246  5938 net.cpp:356] fc-azimuth-new -> fc-azimuth-new
I0802 11:45:36.517252  5938 net.cpp:96] Setting up fc-azimuth-new
I0802 11:45:36.523504  5938 net.cpp:103] Top shape: 64 180 1 1 (11520)
I0802 11:45:36.523545  5938 layer_factory.hpp:78] Creating layer fc-azimuth-new_fc-azimuth-new_0_split
I0802 11:45:36.523561  5938 net.cpp:67] Creating Layer fc-azimuth-new_fc-azimuth-new_0_split
I0802 11:45:36.523566  5938 net.cpp:394] fc-azimuth-new_fc-azimuth-new_0_split <- fc-azimuth-new
I0802 11:45:36.523582  5938 net.cpp:356] fc-azimuth-new_fc-azimuth-new_0_split -> fc-azimuth-new_fc-azimuth-new_0_split_0
I0802 11:45:36.523598  5938 net.cpp:356] fc-azimuth-new_fc-azimuth-new_0_split -> fc-azimuth-new_fc-azimuth-new_0_split_1
I0802 11:45:36.523620  5938 net.cpp:96] Setting up fc-azimuth-new_fc-azimuth-new_0_split
I0802 11:45:36.523641  5938 net.cpp:103] Top shape: 64 180 1 1 (11520)
I0802 11:45:36.523645  5938 net.cpp:103] Top shape: 64 180 1 1 (11520)
I0802 11:45:36.523649  5938 layer_factory.hpp:78] Creating layer loss_azimuth-new
I0802 11:45:36.523666  5938 net.cpp:67] Creating Layer loss_azimuth-new
I0802 11:45:36.523670  5938 net.cpp:394] loss_azimuth-new <- fc-azimuth-new_fc-azimuth-new_0_split_0
I0802 11:45:36.523675  5938 net.cpp:394] loss_azimuth-new <- label_azimuth_labe-slice_1_split_0
I0802 11:45:36.523691  5938 net.cpp:356] loss_azimuth-new -> loss_azimuth-new
I0802 11:45:36.523699  5938 net.cpp:96] Setting up loss_azimuth-new
I0802 11:45:36.523736  5938 net.cpp:103] Top shape: 1 1 1 1 (1)
I0802 11:45:36.523741  5938 net.cpp:109]     with loss weight 1
I0802 11:45:36.523763  5938 layer_factory.hpp:78] Creating layer accuracy_azimuth
I0802 11:45:36.523769  5938 net.cpp:67] Creating Layer accuracy_azimuth
I0802 11:45:36.523773  5938 net.cpp:394] accuracy_azimuth <- fc-azimuth-new_fc-azimuth-new_0_split_1
I0802 11:45:36.523778  5938 net.cpp:394] accuracy_azimuth <- label_azimuth_labe-slice_1_split_1
I0802 11:45:36.523784  5938 net.cpp:356] accuracy_azimuth -> accuracy_azimuth
I0802 11:45:36.523790  5938 net.cpp:96] Setting up accuracy_azimuth
I0802 11:45:36.523794  5938 net.cpp:103] Top shape: 1 1 1 1 (1)
I0802 11:45:36.523798  5938 layer_factory.hpp:78] Creating layer fc-elevation-new
I0802 11:45:36.523818  5938 net.cpp:67] Creating Layer fc-elevation-new
I0802 11:45:36.523823  5938 net.cpp:394] fc-elevation-new <- fc7-new_drop7_0_split_1
I0802 11:45:36.523828  5938 net.cpp:356] fc-elevation-new -> fc-elevation-new
I0802 11:45:36.523834  5938 net.cpp:96] Setting up fc-elevation-new
I0802 11:45:36.537618  5938 net.cpp:103] Top shape: 64 360 1 1 (23040)
I0802 11:45:36.537664  5938 layer_factory.hpp:78] Creating layer fc-elevation-new_fc-elevation-new_0_split
I0802 11:45:36.537674  5938 net.cpp:67] Creating Layer fc-elevation-new_fc-elevation-new_0_split
I0802 11:45:36.537679  5938 net.cpp:394] fc-elevation-new_fc-elevation-new_0_split <- fc-elevation-new
I0802 11:45:36.537686  5938 net.cpp:356] fc-elevation-new_fc-elevation-new_0_split -> fc-elevation-new_fc-elevation-new_0_split_0
I0802 11:45:36.537703  5938 net.cpp:356] fc-elevation-new_fc-elevation-new_0_split -> fc-elevation-new_fc-elevation-new_0_split_1
I0802 11:45:36.537714  5938 net.cpp:96] Setting up fc-elevation-new_fc-elevation-new_0_split
I0802 11:45:36.537719  5938 net.cpp:103] Top shape: 64 360 1 1 (23040)
I0802 11:45:36.537722  5938 net.cpp:103] Top shape: 64 360 1 1 (23040)
I0802 11:45:36.537726  5938 layer_factory.hpp:78] Creating layer loss_elevation-new
I0802 11:45:36.537741  5938 net.cpp:67] Creating Layer loss_elevation-new
I0802 11:45:36.537745  5938 net.cpp:394] loss_elevation-new <- fc-elevation-new_fc-elevation-new_0_split_0
I0802 11:45:36.537750  5938 net.cpp:394] loss_elevation-new <- label_elevation_labe-slice_2_split_0
I0802 11:45:36.537756  5938 net.cpp:356] loss_elevation-new -> loss_elevation-new
I0802 11:45:36.537770  5938 net.cpp:96] Setting up loss_elevation-new
I0802 11:45:36.537809  5938 net.cpp:103] Top shape: 1 1 1 1 (1)
I0802 11:45:36.537813  5938 net.cpp:109]     with loss weight 1
I0802 11:45:36.537825  5938 layer_factory.hpp:78] Creating layer accuracy_elevation
I0802 11:45:36.537832  5938 net.cpp:67] Creating Layer accuracy_elevation
I0802 11:45:36.537835  5938 net.cpp:394] accuracy_elevation <- fc-elevation-new_fc-elevation-new_0_split_1
I0802 11:45:36.537839  5938 net.cpp:394] accuracy_elevation <- label_elevation_labe-slice_2_split_1
I0802 11:45:36.537847  5938 net.cpp:356] accuracy_elevation -> accuracy_elevation
I0802 11:45:36.537859  5938 net.cpp:96] Setting up accuracy_elevation
I0802 11:45:36.537864  5938 net.cpp:103] Top shape: 1 1 1 1 (1)
I0802 11:45:36.537868  5938 layer_factory.hpp:78] Creating layer accuracy_class
I0802 11:45:36.537873  5938 net.cpp:67] Creating Layer accuracy_class
I0802 11:45:36.537878  5938 net.cpp:394] accuracy_class <- label_class_labe-slice_0_split_0
I0802 11:45:36.537904  5938 net.cpp:394] accuracy_class <- label_class_labe-slice_0_split_1
I0802 11:45:36.537910  5938 net.cpp:356] accuracy_class -> accuracy_class
I0802 11:45:36.537916  5938 net.cpp:96] Setting up accuracy_class
I0802 11:45:36.537928  5938 net.cpp:103] Top shape: 1 1 1 1 (1)
I0802 11:45:36.537932  5938 net.cpp:172] accuracy_class does not need backward computation.
I0802 11:45:36.537936  5938 net.cpp:172] accuracy_elevation does not need backward computation.
I0802 11:45:36.537940  5938 net.cpp:170] loss_elevation-new needs backward computation.
I0802 11:45:36.537943  5938 net.cpp:170] fc-elevation-new_fc-elevation-new_0_split needs backward computation.
I0802 11:45:36.537947  5938 net.cpp:170] fc-elevation-new needs backward computation.
…
